static/Neuron_Network/Numpy_array/Weight_Table_INPUT.npy (npy, 627328 bytes, 1 tensors)

array f8 [100, 784]
000000 1e f1 51 c9 0d 63 d3 3f e0 2b 37 da 6b ec af 3f
       0.3029207674042186 0.062350626361499684
000010 c9 15 45 9a c4 a5 d5 3f f2 7b 4b 8f f8 d7 d0 bf
       0.3382426744977605 -0.26318181985510514
000020 72 7f 40 b1 aa 46 a7 bf cb d0 08 70 8a 4f b2 3f
       -0.04546101964683559 0.07152619586196633
000030 b8 43 40 39 d9 df d8 3f ce 18 8e 9f 77 4c b3 3f
       0.3886626299945948 0.07538554807078698
000040 1f e4 05 cd 73 97 c3 3f 52 be c2 5f 02 fd b1 3f
       0.15305945883645308 0.07026686513813132
000050 92 a0 db 82 c6 68 d0 3f 69 6f 92 90 ad bf da 3f
       0.256394984999596 0.41794909590111345
000060 a8 6e fc 73 61 cb dd 3f 7b 5d 0c 9b de 22 df bf
       0.4655383713413621 -0.4865032686370438
000070 d8 8e 0d ba 48 01 b6 3f 31 85 9d 6a 0c 8d bc bf
       0.08595709364231696 -0.11152722933686189
000080 80 88 6d 21 23 f7 d5 bf eb e8 b7 ad f9 29 d0 bf
       -0.343209059376143 -0.2525619694203118
000090 35 ff 4e 61 86 f3 de bf 4a 01 35 5a 84 85 d6 bf
       -0.4836135816840284 -0.3518992310455543
0000a0 44 36 67 ec f6 96 bc bf 10 22 1d 0f cf c1 d5 3f
       -0.11167853614389239 0.3399541518779481
0000b0 ac 96 a9 8c 3d 1f c3 3f bb 49 4a 26 0e 08 d2 bf
       0.14939088218959762 -0.28174165477062346
0000c0 ab dd 10 e4 a0 eb db bf 0a da 2f f4 9a 4c d6 3f
       -0.436256621094311 0.34842561575297337
0000d0 50 eb dc de 2f ad bf bf 1c 1a a9 09 18 61 c2 bf
       -0.12373637381544467 -0.14358807059962053
0000e0 40 8f af a5 2c 6a de 3f e8 87 87 70 d8 00 d8 3f
       0.4752303712868873 0.3750516032142728
0000f0 ed 78 8f 79 a0 8a d3 bf 36 77 83 73 ee 43 c6 bf
       -0.3053361117471372 -0.17394810333547078
000100 24 af 59 db 34 8c b7 3f 05 39 18 a3 20 41 d7 bf
       0.09198313098175653 -0.3633500664444827
000110 0c 68 92 13 ba 84 df bf 29 ca bd 28 d5 66 c5 bf
       -0.4924760047084653 -0.16720070351910124
000120 45 aa d2 d3 ba 20 d0 3f 6f 29 b7 aa 4d 4b ba bf
       0.25199766813117136 -0.10271153848512936
000130 c5 ca 78 0a 19 58 bb 3f 8d ba 79 09 41 30 97 bf
       0.10681301599178557 -0.022645012095774453
000140 83 9f 9d 5e 1e 13 d8 3f c1 21 00 02 0e 0d cb 3f
       0.37616690864387453 0.21133589837724112
000150 13 02 44 4c 19 87 be 3f a4 24 d4 52 77 ee cb bf
       0.11924894439653881 -0.2182149080693182
000160 c3 58 07 87 8a de d3 3f 1b 4a 12 93 32 64 aa 3f
       0.3104578322066908 0.05154569669061378
000170 12 c3 e2 06 a6 c3 6b bf 1e c0 8c c5 55 fb db bf
       -0.003389190932545091 -0.437215273780568
000180 f8 26 5b 19 5b 9a d1 3f 63 90 a5 27 d9 9d ce 3f
       0.27504613376787246 0.2391921466434069
000190 54 f7 ac 81 ee 79 d2 3f 1b 78 40 dc df 40 d7 3f
       0.2886921182979354 0.3633346224686435
0001a0 2e c9 42 7d 7a af c2 3f 25 0b 1a 0e 03 52 d5 3f
       0.14598017803434388 0.33313061120149917
0001b0 34 c0 7e be 61 47 d7 bf 20 31 89 5d dc 86 a4 3f
       -0.36373180010832873 0.040091406267125373
0001c0 e8 17 ad 15 88 6c cf 3f 06 f9 f1 6f c4 f1 c6 3f
       0.24549962099462097 0.1792531534774257
0001d0 8b 76 45 a9 ad 8c c2 3f a8 69 9c 78 3b 97 8f bf
       0.1449181629677024 -0.015425171488051628
0001e0 6d 17 a9 0b 04 56 ad bf 4a 54 99 68 28 a3 d4 bf
       -0.057296873496439506 -0.3224583646272704
0001f0 50 8e bf 2c 07 9b df 3f b7 f6 4a 36 29 97 c1 bf
       0.49383715982387333 -0.13742556715981433
000200 c2 de be 50 d4 7a b5 3f 71 68 db fe 60 7c d4 3f
       0.08390547725036426 0.32009148491272926
000210 69 42 18 d3 60 6a d1 3f 2e 89 d6 f2 38 e8 d3 bf
       0.27211781134341223 -0.31104873385096965
000220 69 00 98 62 72 50 dd 3f c4 b6 77 7b 1f a2 bf bf
       0.4580350840406085 -0.12356755031916139
000230 1e 30 c5 9b 17 f6 c4 bf 60 e5 85 b7 4f 40 96 3f
       -0.163760138568592 0.021729703499180686
000240 85 a2 ab bd 3b 75 c9 3f 13 b1 92 7d b4 1c c0 bf
       0.19889017831089376 -0.1258760083341107
000250 e3 d2 0a 1e 68 7e d1 bf f5 46 04 85 61 b8 b5 bf
       -0.27334025319878047 -0.08484467980840889
000260 f5 e7 3d c3 89 47 a0 3f 0f 94 e3 fe 3b b1 d7 3f
       0.03179579265902525 0.3701925267362762
000270 e9 f4 fe 52 6e cd a0 bf b0 cd 4f 78 a5 2d c6 bf
       -0.03281731379636616 -0.17326801657291702
000280 b7 ce b2 6f 68 7a d0 3f 76 c2 b8 6d e2 8c 85 3f
       0.25747118862203017 0.01052262208313091
000290 8e 95 fd d6 db 52 82 3f 7a 7d 54 67 d8 dc d8 3f
       0.008947103022090255 0.38847932902168447
0002a0 67 34 d8 ea e1 a0 b9 bf 5e b1 80 27 ec 7b d1 bf
       -0.1001111219740821 -0.2731886277931802
0002b0 03 e1 d5 4b 5c bd de 3f 48 8b 90 11 56 58 ac bf
       0.48030764966780753 -0.055361451763266845
0002c0 fe 30 bc a7 03 05 d0 bf 1c ff 44 f4 d8 e2 b8 3f
       -0.2503060472524935 0.0972114178048255
0002d0 5f a5 4d 6e fa 79 dd 3f 2d 4b 92 6f 99 7f d7 3f
       0.46056996127898303 0.36716304679537154
0002e0 af 6c 6e 19 d5 81 c4 3f 6b 58 cb b3 9d cf c4 bf
       0.16021217099919258 -0.162585938253588
0002f0 42 96 bc 70 7a 4b c4 3f 1f 28 2c 70 12 a8 c3 3f
       0.15855341438980203 0.1535666511265967
000300 bd 88 2f bd 09 25 dd 3f 7e ad 3f 31 bf d2 b6 bf
       0.4553856227413567 -0.08915324165689317
000310 0c 96 58 9a a7 69 ce 3f 5d 57 b0 8e ed 71 d8 bf
       0.23759932552745544 -0.38195361074882844
000320 68 7b 08 3d bf ae d9 bf 2a f4 fd 1d 97 97 ba bf
       -0.401290711977643 -0.10387558443285685
000330 2c 5b 86 45 6d 98 aa 3f 18 2c 96 3a 59 99 d0 3f
       0.051944174515645564 0.2593596527228228
000340 be 47 5b 5c 07 27 d5 bf 6a ac 43 52 63 55 d3 3f
       -0.33050712603755616 0.3020866683352269
000350 5d cb f1 77 39 f5 91 3f 83 3f 2d ac c5 6c da bf
       0.0175370196779555 -0.41288892568717744
000360 c1 99 4d cb 53 d8 a0 3f 2f 24 86 e5 8b 37 d9 3f
       0.03290044647910718 0.39401528753711806
000370 15 d5 27 f2 c9 51 d2 bf b8 77 79 4e bf c2 b8 3f
       -0.2862419953156217 0.09672160783654149
000380 26 88 0f ad c0 48 d8 bf bf 84 2c 1d 52 32 cb 3f
       -0.3794404687924974 0.21247316765314925
000390 4c d7 c7 08 e3 f0 d2 3f 3d 80 95 f3 81 f6 d2 3f
       0.295952566695054 0.29629563128947095
0003a0 69 e5 bd 00 d1 b8 b7 3f 7f 13 36 1a 52 c5 de bf
       0.09266382473096758 -0.4807935005158512
0003b0 df e4 15 02 ce 84 b6 bf a1 60 37 de c2 ad ce bf
       -0.08796393919864752 -0.23967777109533464
0003c0 11 47 74 ba 97 09 d1 bf 35 78 7b 5c 77 1b db 3f
       -0.26621049126070867 0.4235514071605196
0003d0 66 f1 5e 16 58 34 da 3f 52 70 35 d9 d8 33 b9 bf
       0.40944482979445807 -0.09844737341831092
0003e0 90 1b 86 7a 0e 4d d2 3f 55 db 84 13 b8 49 dd 3f
       0.28595315900059237 0.4576244536032637
0003f0 0e 01 d0 5f 0e 8e ca bf cb 73 a7 5b b1 2a ca 3f
       -0.2074602096399833 0.20442788100527162
000400 a1 33 eb e0 ad cd b4 bf 46 24 0f 2f d5 c4 c5 3f
       -0.0812634157293375 0.1700693588047974
000410 bf b3 b0 38 3f 3c c4 3f a8 51 9b fa 54 e5 c4 3f
       0.1580885912711931 0.16324865566879265
000420 f1 f3 8b 91 cb da c3 3f 8f 10 10 a4 41 58 b6 bf
       0.1551145992924883 -0.0872841859382467
000430 5a 6d 60 9d 0b 34 c2 3f cf b8 b8 f5 55 dc aa bf
       0.14221329864890714 -0.0524622786000336
000440 a8 5f d0 0f 2c b6 c2 3f e5 b3 2a 1e af 49 a7 bf
       0.14618445179143902 -0.0454840397190777
000450 12 36 3b 29 72 b6 cc 3f 9b 5d 7b 8e c8 69 d1 3f
       0.22431780827757614 0.2720815078186775
000460 01 cd 2d 6d c5 4f d8 bf d4 0b b4 57 84 69 d2 3f
       -0.37986884748461597 0.28769024433875967
000470 67 c0 a0 d8 d3 47 b1 3f db a2 6f ee 63 4e dc 3f
       0.06750225104110684 0.4422845676877338
000480 55 84 c6 ee a5 82 db bf 1b 96 e7 4e 81 d1 cb 3f
       -0.42984913175502487 0.21733108856931058
000490 eb f2 08 b6 71 67 ce bf d8 a1 8b db c4 14 9d 3f
       -0.23753186596322648 0.02839953985213292
0004a0 49 1d bb 31 5f 72 c2 3f ac 03 22 00 75 79 d1 bf
       0.1441153519465195 -0.27303814900374834
0004b0 4e 8d 4c 8f 09 7c 9f bf a3 9a 22 b5 ae 40 d1 3f
       -0.03074660241248966 0.2695729035280385
0004c0 85 e3 27 fb 6e e0 ab 3f 46 b8 e2 61 b1 80 af bf
       0.05444666686884773 -0.061528723906449076
0004d0 51 7e 6f f2 9a 83 d8 3f b5 ee d9 50 56 37 dc 3f
       0.3830325477156054 0.44087751289019234
0004e0 41 57 1e c8 88 f1 93 3f be 1f a1 60 19 fe da bf
       0.01947606774736888 -0.4217589801451104
0004f0 cb 2b 27 24 a0 e3 b9 3f 7c e4 b2 8e 88 6e c7 3f
       0.10112954027788061 0.1830607125064353
000500 1d 36 8f 26 2b 62 dd bf b9 a6 6d f3 75 18 90 bf
       -0.45911673322265917 -0.015718310339628092
000510 1b 46 0d 09 f7 60 af 3f c4 d1 3f 36 b7 2c d8 3f
       0.061286659102403905 0.37772922799856823
000520 6b 23 00 1a f8 ac c9 bf 20 99 7e 45 2a c2 d5 bf
       -0.20059109944875372 -0.3399758986146413
000530 6c d9 50 0d 2b 14 d7 bf fe 5f ab e7 08 3b d8 bf
       -0.3606059675252229 -0.37860319732635606
000540 b5 21 eb 64 6e 96 c2 bf 5d e0 a7 69 d1 99 d9 3f
       -0.14521579673443133 0.4000133067888834
000550 d2 86 7d 31 79 82 db 3f d7 58 41 3b 0a 46 b3 bf
       0.4298384650520407 -0.07528747507726351
000560 14 53 a8 c9 9f 27 c0 3f 18 be bc 44 50 96 c6 bf
       0.12620923372801285 -0.1764622054702023
000570 59 9c eb 6f 9a cb d2 3f 47 87 e0 e6 9f 14 c7 bf
       0.2936769574138843 -0.18031691335004948
000580 e0 0f b3 a8 49 68 cc 3f 5d 1d e7 db 53 58 da bf
       0.22193260895994538 -0.41164108729249965
000590 ab 70 c7 7e d4 f7 d0 3f ee 37 33 14 f5 6a df 3f
       0.2651263464047228 0.4909031579271631
0005a0 52 5d 9e a8 5f f8 d4 bf 44 44 f0 58 84 cd d0 bf
       -0.327659525553334 -0.262543761114163
0005b0 f3 8f a4 71 2e e7 cc 3f 1b 9d ad b7 60 cb dd 3f
       0.22580509709325688 0.46553819596597784
0005c0 86 be 5b ff 6c 04 9e bf cc 06 9f 40 3e 96 cb bf
       -0.029313757978285192 -0.21552255778629215
0005d0 35 9d 71 67 6e a3 db bf ef b0 26 34 aa 1c db bf
       -0.431850052852002 -0.4236245641029787
0005e0 ae b8 6b 82 bd 81 d0 3f e2 06 1e a9 a4 10 da bf
       0.2579187177315231 -0.40726582064972494
0005f0 a0 d5 d0 18 68 ea c3 bf 5f fe c2 ae 09 66 d5 3f
       -0.15559102260310187 0.3343528944642226
000600 1a 08 b3 f9 79 11 cc 3f 70 8b b8 63 0b bc d5 bf
       0.21928333942747785 -0.33960232485167463
000610 a7 8a aa 95 53 47 b4 3f 54 28 30 9e 9d 6e cb 3f
       0.07921335605582645 0.2143132231142909
000620 80 d5 66 bb 4c 36 cd bf 2b aa fa f1 a6 4e d7 bf
       -0.2282195963904705 -0.3641755450322843
000630 1d 88 cc ef 9d 85 d9 3f 75 5c d8 60 e1 ea cc bf
       0.39878033082834624 -0.22591798046844117
000640 4f e2 73 b7 0c 12 a6 3f 66 87 cd bf 20 de d1 3f
       0.043106458086133 0.2791826127123528
000650 40 0b 7d 0d 0f 4a d8 3f 97 61 c3 ff 90 61 d1 3f
       0.3795201904032872 0.27157998062968985
000660 72 b6 81 e1 0c 7b d7 3f 3d f0 f5 d7 9f 9e c3 bf
       0.3668853952611705 -0.15327833218532474
000670 ff fb 75 08 6a 1e c4 3f 94 3a a4 b2 54 93 dd 3f
       0.15717816746834498 0.4621173615022738
000680 66 11 fb e7 34 c8 be bf 70 c9 cc 8d e7 1f e1 3f
       -0.12024241126625199 0.5351445931940315
000690 33 af 26 70 a8 a9 d6 3f 0f f4 47 e5 03 21 cc 3f
       0.35410510017640034 0.21975754447331083
0006a0 ca 8d 06 df 25 05 c4 bf af 5c c2 17 53 13 94 3f
       -0.15640710248872686 0.019604967427394978
0006b0 93 6c 26 5d cc 0f dd bf 50 6e 88 da f5 b9 ba 3f
       -0.4540892514866723 0.10440002999569598
0006c0 ce ce a3 6c 54 b8 ca 3f 06 79 54 9e 5b 07 d2 3f
       0.208750298544706 0.2816990896407251
0006d0 f6 af 6a d4 b4 57 d5 3f 58 53 60 5c 2b da 9d 3f
       0.3334781717665004 0.029152562630844286
0006e0 64 15 ab dd 5a f6 d4 3f 6a ae 36 58 84 0e d8 bf
       0.3275363125543065 -0.3758860455952574
0006f0 fe ee 14 34 d7 91 a1 bf 38 d9 77 37 95 ba d0 bf
       -0.03431580076946082 -0.2613881150895341
000700 0e 46 4a 9d 2e 8a b8 3f 57 c5 4a 6f 6d 16 a7 3f
       0.09585849132624721 0.04509298308893033
000710 0c 4f b3 95 8a 95 d5 3f db e8 68 dd 3b 4e bd 3f
       0.33725227946455116 0.11447500377190371
000720 77 4a df 9e 16 87 d0 3f 3b 9b 5d 1f 6a fd da bf
       0.2582451392637845 -0.42171719611217257
000730 40 35 f7 11 6f a4 dd 3f f7 c3 e1 f2 cd e1 d2 bf
       0.46316124681910154 -0.29503201216635894
000740 77 0e ce 97 71 06 d3 bf 2c 85 4c 0e 99 54 d3 3f
       -0.29726829361627644 0.30203844448449746
000750 74 d1 54 5d 4e eb d6 bf 4f 14 5d 02 ad 3f b5 bf
       -0.3581119452894861 -0.08300286586480009
000760 45 8c d0 2e 72 0e ce bf ad aa 27 78 4f b7 d1 bf
       -0.23481585775252448 -0.2768133805645146
000770 d4 3c 38 b7 b6 2f c1 3f 38 52 d3 b9 3d 18 e4 3f
       0.13426860758088444 0.6279591206935669
000780 22 d4 bc 66 9c b5 e1 3f fc de 16 66 fa b3 91 3f
       0.5534193045228941 0.01728812454322702
000790 10 b1 3d d6 76 7c d4 3f 22 c9 f7 58 74 ae af bf
       0.32009669229479787 -0.06187785707506267
0007a0 24 f7 57 84 de 77 ca bf 54 0a 43 59 f8 8e ce bf
       -0.20678311788645332 -0.23873810156335884
0007b0 9d 44 cb ee 1e bf cf 3f 40 2c d1 dd 70 97 97 bf
       0.24802004489769028 -0.023038638628616548
0007c0 70 fb 6c e0 c8 0c c0 3f 6f 5e cf ee 30 e3 d9 bf
       0.12539015730177594 -0.40449164696972323
0007d0 67 bc 5a df 17 45 d3 bf 41 7c c5 55 c6 bb c2 bf
       -0.3010921174235989 -0.14635543048913927
0007e0 fe f7 34 bd c3 88 90 bf 96 e0 72 ef e8 10 c8 bf
       -0.016146715567849405 -0.18801604930718402
0007f0 75 12 85 5f f6 c9 d0 3f 95 2d 5a 7c 5b 19 de bf
       0.26232680633646704 -0.47029769080901335
